fastapi-back/notebook/convnet.pth (torch, 28864 bytes, 8 tensors)

net.0.weight f4 [6, 1, 5, 5]
000000 1f 1c 85 be 2a 1e 41 be cb 67 3c bd 2d 4f bf 3d
       -0.25998017 -0.18859163 -0.045997422 0.093412735
000010 63 b7 69 be 1c 90 b6 3e 4f 56 25 bd a4 1c 0c 3e
       -0.22823863 0.35656822 -0.040365513 0.136828
000020 1d 3f 98 3e bd 2b e9 3e 75 c4 4e 3e 6c 28 ba 3e
       0.29735652 0.45541182 0.2019213 0.36358964
000030 2b fa 0f 3f b4 41 b7 3e f0 32 0b 3e d4 ba d7 be
       0.562411 0.35792315 0.1359365 -0.42134726
000040 dc e4 91 bc cc 97 98 3d f5 a1 f7 bd cf 35 e7 3d
       -0.017809324 0.07450828 -0.12091438 0.1128956
000050 33 ca 9e be cf dc 97 bd 6e 45 e7 be 34 d7 eb bd
       -0.3101364 -0.07415163 -0.45170158 -0.11515656
000060 a1 da a7 bc 77 1a 4f be 8a 37 2c 3d 32 fa 81 3e
       -0.020489993 -0.2022494 0.042045154 0.25386196
000070 dc 12 1b 3d 71 6e c6 bd 30 3e 18 3e fb fa 5c 3e
       0.037859783 -0.09689034 0.14867473 0.21580116
000080 05 61 ed 3e 0c cf 4a 3e d6 aa 66 be ee ef f2 3e
       0.46363083 0.19805545 -0.22526106 0.47448677
000090 6f db ab 3e 0a 69 f1 3e db a3 4b 3e 21 8f 32 3d
       0.33565852 0.4715045 0.19886725 0.04359353
0000a0 72 9b e9 bd 74 c3 03 3e ad 88 d1 3c 96 cf fe 3e
       -0.11406602 0.12867528 0.025577867 0.4976775
0000b0 99 c2 09 3e 52 f2 08 3e a1 ab 4f 3e 9c e4 3b 3d
       0.1345314 0.13373688 0.20280315 0.045872316
0000c0 51 0a c2 be f1 c3 c1 be 4e 5f c7 3e b9 70 c8 3d
       -0.37898496 -0.37844804 0.389399 0.09787125
0000d0 2b 55 7f 3e 7a 72 f4 3d 3e 4b fa bd 97 bb d2 bc
       0.24934833 0.11935897 -0.122213826 -0.025724215
0000e0 9e 6d 21 be 1a 1a dd bd 41 97 bd 3e 8e 03 26 bd
       -0.15764472 -0.10795994 0.3702946 -0.040530734
0000f0 74 e4 38 3e cd 81 2c 3e c0 66 d3 3d 3c 2c fd 3e
       0.18055898 0.1684639 0.103223324 0.4944781
000100 d7 9c cd 3d 77 a5 b2 be 32 1b 9d be 75 63 62 ba
       0.100396805 -0.34891865 -0.3068481 -0.0008636036
000110 ff 53 80 bc 12 20 07 3f ac 4a 5a be 46 f6 d8 be
       -0.015665052 0.5278331 -0.21317548 -0.42375392
000120 86 c7 b9 3d ac db 73 3e 5c 7c f5 bd 26 15 d9 ba
       0.09071259 0.23814267 -0.1198661 -0.0016562089
000130 3b 75 70 3d 2e 1a 84 3e 10 ec c2 3e d2 a5 7d 3e
       0.05870555 0.25801224 0.38070726 0.24770287
000140 0d 63 a0 3d b0 98 20 be 30 9c da bd c4 31 1d 3f
       0.078313924 -0.15683246 -0.10674322 0.6140406
000150 0f 37 3d 3e 96 33 d7 be c7 af 80 3e dc c3 47 bd
       0.18478034 -0.42031544 0.25134107 -0.04877077
000160 ac b0 6b 3e ba b4 95 be 08 76 3d bc 0c 39 9b be
       0.23016614 -0.29239446 -0.011563785 -0.3031696
000170 7f ae 8e be 37 04 dd 3d 86 b2 c9 be ef 77 d4 be
       -0.27867505 0.107918195 -0.39394015 -0.41497752
000180 40 51 3c 3e 98 85 2b be 47 38 8b be 8b 70 06 bf
       0.1839037 -0.1675018 -0.27191374 -0.52515477
000190 ee 94 c0 bd e5 d3 08 be ed 72 57 3e fc 2a bb 3e
       -0.09403406 -0.13362081 0.21039934 0.36556232
0001a0 40 64 ec bd 4c 3b 6d 3d be 01 bc 3e 75 17 2d 3e
       -0.11542559 0.057917878 0.3672008 0.1690348
0001b0 ff d3 c1 3c b1 b7 1d bd 85 72 76 3d ba 3c a5 3d
       0.023660658 -0.03850526 0.060167808 0.08068223
0001c0 c7 54 95 be be 14 9f be 53 6d 72 bd 9e ff 84 3e
       -0.29166242 -0.31070513 -0.05918629 0.2597627
0001d0 8a a5 22 3f d3 d8 ab 3d 56 5d c1 be 22 ce 82 be
       0.6353384 0.08390965 -0.37766522 -0.25547892
0001e0 c0 4c ef 3e 1b 9f d6 3e 96 20 da 3c 40 f9 a1 be
       0.46738243 0.41918263 0.026626866 -0.31635475
0001f0 0c b4 4a be 39 87 45 be 02 9a 1e be 02 ac 83 be
       -0.19795245 -0.19289865 -0.15488437 -0.2571717
000200 0b 3e 89 be 76 04 bf be e8 90 b4 3e 84 c4 b3 be
       -0.26805148 -0.3730809 0.35266805 -0.35110867
000210 c6 4d e0 3d db 2d b5 be 8e ad 72 be ac 72 c0 3d
       0.10952334 -0.35386547 -0.23699018 0.09396872
000220 ed fd bd 3e 6e 2d 0f bf 0e cc 77 bb 46 92 b0 be
       0.37107792 -0.55928695 -0.0037810835 -0.34486598
000230 7c 71 39 3e db 8f 70 be 7d 8a cb bd e2 cd f4 be
       0.18109697 -0.23492377 -0.09938524 -0.47813326
000240 00 11 42 bd 1e 24 a5 3e e8 9c 99 bd 75 5c 60 be
       -0.047379494 0.32254118 -0.075006306 -0.2191027
000250 01 77 00 be 01 da 18 3e
       -0.12545396 0.14926912

net.0.bias f4 [6]
000000 96 82 ba 3e 4b c1 cf 3e 9f 83 90 3e c8 d5 a2 3e
       0.36427754 0.40577158 0.2822542 0.31803727
000010 ee ad 8e 3e 94 dd e1 3d
       0.27867073 0.11028591

net.3.weight f4 [6, 6, 5, 5]
000000 4a b4 e4 3d a7 ad f0 bc fa 37 89 3d e3 62 73 bd
       0.111672 -0.029379679 0.0670013 -0.059420478
000010 30 50 b8 3b 46 03 cf bd 10 b3 d6 bc ee 19 98 3b
       0.0056247935 -0.10108046 -0.02620843 0.004641763
000020 4d 06 f3 3d 89 03 c2 3d a0 4a 56 3e 49 1e 37 3d
       0.11866436 0.094733305 0.20926905 0.044706617
000030 aa ff b0 3d 0a ca 1a 3e 77 b6 4d 3d 44 31 8b be
       0.08642514 0.15116134 0.05022284 -0.27186024
000040 99 3c 43 be dc dc 2d bd 88 7d 09 be 81 45 b4 3d
       -0.19066085 -0.042446956 -0.13426793 0.08802319
000050 4d 8b b1 3c 2e d8 24 3e 6e 68 4c bd 5f ff 4f be
       0.02167287 0.16098091 -0.04990428 -0.2031226
000060 c2 ed ec bd 5a 4b fb 3d 2b f5 ec 3d 68 e3 96 bc
       -0.11568786 0.122702315 0.115701996 -0.018418983
000070 4f 60 7a 3c 25 a5 97 bc 86 1a 98 3d a0 8f 67 bd
       0.015281751 -0.018511364 0.07426934 -0.056533456
000080 15 f8 27 3d 3b 2d d6 bc 7a 96 d6 3d e4 fe a9 3d
       0.041008074 -0.026144614 0.1047792 0.0830057
000090 9b a1 ce bd 5f f5 98 bd 79 df 50 bc 6c 38 99 bd
       -0.100894175 -0.07468676 -0.0127485925 -0.07481465
0000a0 0f cb 7f bd 15 7f bb bd 8c ef 58 be 07 3b 35 be
       -0.06244951 -0.09155098 -0.2118513 -0.17698298
0000b0 36 ce 9e bc b7 76 3b be 97 1d 0c 3e 21 6c a9 3d
       -0.019385438 -0.18307005 0.13683163 0.08272577
0000c0 99 ec 12 bc ba e4 12 bd a0 ae 5d bc 76 38 90 3d
       -0.008967542 -0.035862662 -0.013530403 0.07042019
0000d0 0c 48 09 bc 3f 2f d4 bd d6 ee 54 bd 64 27 99 bd
       -0.008378994 -0.10360574 -0.051985584 -0.07478216
0000e0 9c 6c 00 3e 0a ea 4b bc 24 2b eb 3d 7b 65 95 3d
       0.12541431 -0.012445936 0.11482838 0.072947465
0000f0 80 5d 89 3d 3e f5 90 bd 3b 29 69 3e 22 25 6a 3d
       0.06707287 -0.07078026 0.22769634 0.05716432
000100 a5 c9 bb 3d 03 49 16 bc f8 be 95 bd 32 bf 84 bd
       0.0916932 -0.009172681 -0.07311815 -0.0648178
000110 9b 92 21 3c 49 ec 26 3d a0 c1 09 3d 55 6a 2e 3e
       0.009861614 0.040752683 0.03363192 0.1703275
000120 3d ad 2f be b9 c8 ad bd c4 31 8f be 35 63 b1 bd
       -0.17155929 -0.084855504 -0.27967656 -0.086615
000130 81 74 03 be 86 8c aa be 54 39 ab bc 22 65 fa bc
       -0.12837411 -0.33310336 -0.02090136 -0.030565802
000140 1a 1c 18 be a4 06 e6 bc 91 e8 7d 3d a8 1e 44 bd
       -0.1485447 -0.028079338 0.06198937 -0.0478808
000150 c5 f3 22 3c d0 3e fb 3d 08 e3 47 3d c3 23 f6 3c
       0.0099458145 0.1226784 0.0488005 0.03004635
000160 cc 53 14 3e ea df 0f 3e f4 f1 75 3d 7e f6 6d 3e
       0.14485091 0.1405026 0.060045198 0.2323856
000170 11 8d 3b 3e 97 b9 cf 3d 43 44 8e bd d4 a3 89 3e
       0.18315531 0.1014282 -0.06946614 0.26882803
000180 93 62 4e 3d d8 d4 32 3e 64 0d 41 bd 64 a6 01 be
       0.050386976 0.17464006 -0.04713191 -0.12661129
000190 97 4d bc 3b 22 2a 80 bd e6 a3 94 bd d9 df 53 3d
       0.005746554 -0.06258036 -0.07257824 0.05172715
0001a0 ce d1 45 bc c8 c0 7c 3d f6 27 71 3e 96 d0 08 3e
       -0.012073947 0.061707288 0.235504 0.13360819
0001b0 5a 8a 58 bd 17 50 55 bc d8 b1 64 bd e9 7b 29 bd
       -0.052866317 -0.013019583 -0.055833668 -0.041377936
0001c0 5c 15 b5 bd 38 3b 85 bd 8c d0 46 3d 4c 0c 4e be
       -0.088419646 -0.06505436 0.04853873 -0.20121878
0001d0 4a ac 4f 3c a2 29 09 be d2 38 d8 bd b3 e5 6b bc
       0.012675354 -0.13394788 -0.105577126 -0.014398026
0001e0 a3 71 fb bd 27 22 7a be b2 0d 1f bb 16 c3 6d be
       -0.12277534 -0.2442709 -0.0024269638 -0.2321895
0001f0 ee 78 21 3e e4 74 90 3d aa 96 08 bd d8 4f 64 3e
       0.15768787 0.07053545 -0.03334681 0.22296083
000200 83 1f 28 3c 4c f5 27 3c 7d 19 ee bd f2 d3 1d bc
       0.010261419 0.010251354 -0.11625955 -0.009633051
000210 84 57 b7 3d bb 2c 5c be 92 57 82 bd b4 65 cc bd
       0.08952239 -0.21501438 -0.06364359 -0.09980336
000220 02 f6 ac 3d 55 44 e7 3d 88 0e 00 be bb 83 6f bd
       0.0844536 0.1129233 -0.12505543 -0.058475237
000230 57 23 c0 bd c5 0a b0 3c 12 6e 62 3c e8 67 f5 3d
       -0.093817405 0.02148951 0.013820188 0.11982709
000240 b0 6d f2 3d 5b 95 aa 3d 6f cc d2 bd f3 14 58 3e
       0.118373275 0.083292685 -0.10292899 0.21101741
000250 fb 64 35 3c 3f 94 16 3e 9d c2 af 3d f2 28 2f be
       0.011071439 0.14704989 0.085820414 -0.17105463
000260 6a 75 81 bd 51 a9 0e be 83 31 6a bd f5 23 29 bc
       -0.06321223 -0.13931777 -0.057176124 -0.010323514
000270 de 29 51 be 3b a7 88 be 23 5a 90 bd 0c 05 37 bd
       -0.20426127 -0.26690087 -0.07048442 -0.044682547
000280 c1 c0 10 3e f5 3e 6a 3e 3c 76 a2 3e e4 77 93 bd
       0.1413603 0.22875579 0.3173083 -0.07200602
000290 c2 1c 56 bc f2 c8 58 3e 2d ef 83 3c 89 7a 84 bc
       -0.01306838 0.21170405 0.016105259 -0.01617171
0002a0 42 52 a7 bd b8 e8 fc 3a 8e f4 53 bd 2e 73 79 3d
       -0.08169986 0.001929543 -0.051746897 0.06090086
0002b0 2d 94 3a 3d e4 b4 26 3e 75 8f 0c be f5 24 67 3e
       0.045551468 0.16279942 -0.137266 0.22572692
0002c0 e5 28 6c 3d 01 a2 66 bd bc b8 12 bd 5a 65 de bd
       0.057656188 -0.056306843 -0.035820708 -0.10859175
0002d0 ef 84 35 3d 04 d9 e9 3c 16 5a 96 3a 8d a8 61 bc
       0.04431623 0.028545864 0.001147094 -0.013773096
0002e0 64 e8 d4 bc 5c 76 17 3e c0 79 52 3d 29 10 08 3d
       -0.025989719 0.14791244 0.05138564 0.033218537
0002f0 d6 aa a4 3d e5 4b 4b be 86 35 a6 3e b2 81 d0 bd
       0.08040397 -0.1985317 0.3246271 -0.101809874
000300 68 32 ce 3d 90 8b 49 bd ff fb 09 bd 09 2d ed bd
       0.10068208 -0.049205363 -0.033687588 -0.115808554
000310 f0 42 5c be fe 28 ad 3d 74 1f 55 bc 88 8b fb bd
       -0.2150991 0.08455084 -0.013007987 -0.12282473
000320 46 58 13 3e 7c 9d a9 bd 01 f6 36 ba 8e 69 85 3a
       0.14389142 -0.08281991 -0.00069794065 0.0010178552
000330 cf 92 9f 3d 7c fd 28 3e 32 a0 b6 bd ae d5 be bd
       0.077916734 0.16502947 -0.089172736 -0.093181
000340 87 0e ae bd 58 a3 05 3e 06 fc c3 3c 7b ac ee 3d
       -0.084988646 0.13050592 0.023923885 0.11653992
000350 b7 f0 3b 3e 66 a6 d9 3d d2 01 2b be 02 60 68 3d
       0.18353544 0.10627441 -0.16699913 0.056732185
000360 96 b1 fd 3d 0e 3a 91 3e 91 e2 8b 3b d2 14 6a bb
       0.123873875 0.28364605 0.004268952 -0.0035717976
000370 14 5c 36 3d 23 d7 d3 bd 24 b3 fc bd 2f d7 7b bd
       0.044521406 -0.103437684 -0.12338856 -0.061484512
000380 35 cc 8f ba 85 89 45 bd 9a d8 b2 3d 3f 33 d5 bd
       -0.0010970893 -0.048226852 0.0873272 -0.10410165
000390 75 bf 3f bd ca a4 12 3d 98 10 26 bd a7 4e 38 be
       -0.046813447 0.035801686 -0.04054317 -0.17998753
0003a0 44 82 44 be 7a cf 5f bc 61 42 5b 3d bf 85 b5 3d
       -0.19190317 -0.013660306 0.0535301 0.08863401
0003b0 1e 37 72 3c d2 01 29 be c9 12 96 bd 4e cf 0e bc
       0.014783649 -0.165046 -0.07327802 -0.0087164175
0003c0 cf cd 9c 3d 4f a7 9c 3d 16 ab a9 3d eb b4 2c 3e
       0.076564424 0.07649099 0.08284585 0.1686589
0003d0 ff 23 76 3b b0 61 5a 3e e8 b4 70 bd ec 68 55 3d
       0.0037558076 0.21326327 -0.058766276 0.052102014
0003e0 59 86 ce 3d ce 3d a5 3d 2b 49 9b 3e 71 c0 e3 3d
       0.100842185 0.08068429 0.3032926 0.1112069
0003f0 47 3c 0f 3d b5 9b 8c be 03 3c a1 bd a8 2d 4f be
       0.034969594 -0.27462545 -0.078727745 -0.2023226

net.3.bias f4 [6]
000000 79 70 6d 3d 2d be a4 bc f3 02 f4 bd 9a 80 19 3b
       0.05796859 -0.020110214 -0.11914625 0.00234226
000010 22 64 0b 3e 7c f9 1a bc
       0.13612416 -0.009458896

net.7.weight f4 [50, 96]
000000 8e 68 d8 3d fd a0 fa 3d 93 5f bc bd 49 09 26 be
       0.10566817 0.12237737 -0.09197917 -0.1621448
000010 36 2d a6 3c ad e6 c2 bd 67 98 1c 3c e7 ce 8b bd
       0.02028523 -0.09516654 0.00955782 -0.06826573
000020 84 a3 4e bd 98 fe 25 bc 79 7f 82 bd 1a d8 11 3d
       -0.05044891 -0.010131501 -0.0637197 0.03560648
000030 8a 76 c3 38 ba c9 c4 bd 0a 09 45 3e 6e aa 09 be
       9.320404e-05 -0.09608789 0.1924173 -0.1344392
000040 39 dd 5b bd 32 ab 84 3d 9e 76 5c 3d 15 29 4b be
       -0.05367777 0.064779654 0.05382406 -0.1983989
000050 91 c3 5a be 24 35 09 3e 0d 62 d5 bd 22 0a 97 3d
       -0.21363665 0.13399178 -0.10419092 0.073749796
000060 44 af 3a bd 2d 87 17 3e d4 7e d2 bc 92 7e 85 be
       -0.045577303 0.14797659 -0.025695242 -0.26073128
000070 df 1c 7c 3d 04 34 c5 ba 1f 2e f6 3d 26 db 3c be
       0.06155097 -0.0015045409 0.12020516 -0.18442973
000080 b6 a4 60 3e c2 e2 f0 bd f2 9f e3 3d 34 4f 00 3e
       0.21937832 -0.117620006 0.111144915 0.12530214
000090 4e ad b6 3d 81 37 1d bc ed d9 33 3e 17 b8 7b bd
       0.08919774 -0.009595753 0.17563601 -0.06145486
0000a0 1d d0 a7 bd d8 5e 5a bb 16 f7 34 3d 4b 12 11 be
       -0.08193991 -0.0033320691 0.044180952 -0.14167134
0000b0 1b d5 38 bc 7f 0b f7 3d 0e 62 be bd e5 36 61 bd
       -0.011281277 0.120627396 -0.09296046 -0.054983992
0000c0 e3 a9 23 bd d7 0e e9 3b 2c da f9 3d bf 42 9f 3c
       -0.03995694 0.0071123648 0.12199816 0.019441007
0000d0 dc 4f 10 be fa 19 00 3d 5a 18 db bc a1 b8 ae 3d
       -0.14092964 0.031274773 -0.02674501 0.08531309
0000e0 8a 3c 3c bb 2e c7 b1 3c 64 33 dc bd b7 cc f5 bd
       -0.0028722608 0.021701422 -0.107519895 -0.12001937
0000f0 b5 b8 3c be cd 68 0b 3e 08 1a 93 bd 04 86 0f 3e
       -0.18429835 0.13614197 -0.071826994 0.14015967
000100 9f 9a 58 be 73 b1 fa 3d 9d f9 b2 3d 2f a9 c8 bd
       -0.21152733 0.12240877 0.08739016 -0.09797894
000110 da 3c 31 bd d0 b1 3a be b8 3f db 3d 81 d5 bf 3c
       -0.043270923 -0.18231893 0.10705513 0.023417236
000120 a8 f9 45 3d ab f8 2f bd 4e cb b5 3d 7c 3b 3e be
       0.048333794 -0.042961758 0.08876668 -0.18577379
000130 cd 56 19 be f4 a2 a2 3d 0d 1d 10 bd df b1 17 be
       -0.14974518 0.07941237 -0.035183955 -0.14813946
000140 d9 5b a4 bd 88 70 f8 3d 45 2f 08 bd d1 9c 9b bd
       -0.08025331 0.12130839 -0.033248205 -0.0759827
000150 f5 52 ec 3d 58 b6 6a be 20 a4 59 3e 58 41 a4 bd
       0.1153926 -0.22921121 0.21254015 -0.08020276
000160 cf 58 70 3d e4 12 5b 3d 53 e1 a5 3d 8e d9 17 bd
       0.058678444 0.053484812 0.08099618 -0.03707271
000170 7d 63 a3 3c 6d 48 bd bc e8 59 70 bd 99 23 5a 3e
       0.0199449 -0.023105824 -0.05867949 0.21302642
000180 2e 0e 16 3e cb 52 e7 3d 37 c0 ca bd a0 9e 1f 3e
       0.14653847 0.112950884 -0.09899943 0.15587854
000190 0d 1a 32 be 4e 8d 2e be 94 5d 62 3b 4b f2 68 bc
       -0.1739275 -0.17046091 0.003454064 -0.014217923
0001a0 30 03 8d bd ef de 96 3b 0a 42 5f bc bb 7d 88 be
       -0.068853736 0.0046042125 -0.013626585 -0.26658425
0001b0 1b f1 6f 3c 88 27 6a 3d 74 f7 ad 3d 3b f6 23 be
       0.014644886 0.057166606 0.084944636 -0.16011898
0001c0 1b 5c 94 bb d7 8a ba 3b 60 9a 59 3d 8f 3f 33 3d
       -0.0045275814 0.0056928205 0.05312574 0.043761786
0001d0 89 f1 ad bd 33 55 0b be 0e a6 37 be 05 c4 d5 3d
       -0.08493335 -0.1360672 -0.17934439 0.104377784
0001e0 c0 d2 1b 3e 3e ee d4 3d 68 03 bd bc 82 a9 c0 3c
       0.15217113 0.103970036 -0.023072913 0.023518328
0001f0 05 b3 c7 bc c2 6b ee 3d 33 ef ae bd c5 80 d2 bd
       -0.024377355 0.11641647 -0.085417174 -0.10278467
000200 4f 48 2a 3e a1 3b 12 3e b1 76 9e be d0 75 f7 3c
       0.16629146 0.14280559 -0.3094993 0.030207545
000210 3b 11 63 3e 62 92 b7 bd 26 94 11 3d a3 e9 9e bd
       0.22174542 -0.08963467 0.035541676 -0.077594064
000220 91 8e 32 be 14 f9 3e bd 01 ca 3f bd 73 88 9d bd
       -0.17437197 -0.04662426 -0.046823505 -0.07692041
000230 3a f7 18 3e 4a e8 7b bd 06 c9 5b bd 29 2c f7 bc
       0.1493806 -0.061500825 -0.053658508 -0.030172424
000240 d4 18 71 bd 00 d8 61 3d f6 9f 81 bc 8b 6b 96 3d
       -0.05886157 0.055137634 -0.015823346 0.07344731
000250 1c aa 00 be 45 cd 73 bd 40 45 ae bd 72 64 9b bd
       -0.12564892 -0.059521932 -0.08509302 -0.07587518
000260 7d 2d e8 3c f6 4b d7 bd fb 0e 03 bc 3e 91 0e 3d
       0.028342003 -0.10512535 -0.007999177 0.034806482
000270 e1 c1 f5 bd ee 80 91 3d d4 b5 34 be 04 4b 74 bd
       -0.1199987 0.071046695 -0.17647487 -0.059641853
000280 cb 32 4c bd 5b e1 0e 3d cb e5 41 bd 69 c7 62 bc
       -0.049853127 0.034882884 -0.04733829 -0.013841488
000290 84 ad 90 bc 50 fa 42 be 3b d9 2b 3d 61 15 18 3d
       -0.017660864 -0.19040799 0.041955214 0.037129764
0002a0 5a a5 ae 3d 44 a1 4e 3d 74 40 97 3c 8b e7 67 bd
       0.08527632 0.050446764 0.01846335 -0.0566173
0002b0 a1 d2 e4 bd f3 16 f3 3d db 56 22 be e8 7b 06 be
       -0.11172987 0.118696116 -0.15853445 -0.13133204
0002c0 f7 c7 47 3d 1c fd 47 be d7 fc ac bd 78 48 86 3d
       0.048774686 -0.19530147 -0.08446663 0.06556791
0002d0 f9 bb 2d 3e 47 8f 87 bb cf 18 89 bc 14 dd 2a 3d
       0.16966237 -0.004136953 -0.016735462 0.041714743
0002e0 e3 b3 d8 3d b4 d5 24 3d f3 c8 81 3d 3e e3 16 3d
       0.10581186 0.040242866 0.06337156 0.03683781
0002f0 29 40 f0 3c a8 6c ff bd f1 d0 0d be 36 b3 85 3c
       0.029327469 -0.124718964 -0.13849236 0.016320806
000300 dd fa 49 be f3 41 06 be 6b 63 17 3c 3c 40 10 bd
       -0.19724603 -0.13111095 0.009240012 -0.03521751
000310 2a 9a 92 bd 8c 09 6e 3d bf 90 eb 3c 35 29 ea 3c
       -0.07158311 0.058114573 0.028755544 0.028584102
000320 c6 92 42 be 94 86 1c 3d ab 6a cb bb 1e 67 1e bd
       -0.19001302 0.03821428 -0.006207784 -0.03867256
000330 ac e0 f4 bd e5 10 4d bd c3 39 d6 bd 74 a6 76 bd
       -0.11956915 -0.05006494 -0.10460236 -0.060217336
000340 c9 93 21 be 59 ab 81 bc cc 84 57 3b 1c db 85 3d
       -0.15779032 -0.015828775 0.003288555 0.065359324
000350 7c e6 e3 3d 43 03 9f 3d 3a 87 8b bc 25 54 07 bc
       0.11127946 0.07764294 -0.017032254 -0.008259808
000360 20 1e 0a 3e 53 fd d5 bc 93 81 1a bb 31 fe b0 3c
       0.13488054 -0.026121771 -0.0023575767 0.021605583
000370 04 49 a3 3d b2 df c4 3d 2d f0 11 3e 59 47 35 bd
       0.07972911 0.09612979 0.14251776 -0.044257496
000380 73 03 1f bd 49 a8 08 bd 48 23 14 bd d0 d7 2c be
       -0.03882165 -0.033363614 -0.03616646 -0.16879201
000390 0a 13 c9 3d 6f ec 20 be f9 27 1b 3d 1f 83 be 3d
       0.098180845 -0.15715192 0.037879918 0.09302353
0003a0 6a 64 0d 3d 1a 41 27 bd 00 87 bd 3d 95 cd a5 3c
       0.03451959 -0.04083357 0.09254265 0.02023963
0003b0 77 e9 5a be bc a9 88 bd 47 c3 16 3d 59 5f b2 3d
       -0.21378122 -0.06672999 0.036807325 0.08709592
0003c0 f1 37 84 3d 35 34 20 be 18 0f 31 bd cc 75 23 3c
       0.064559825 -0.15644915 -0.043227285 0.009976815
0003d0 2a 57 83 3d 81 e8 1f be 0b ef 4e be 03 8f 32 3d
       0.064131096 -0.15616037 -0.20208375 0.043593418
0003e0 53 eb 81 3d 5a 42 4a 3c 39 8e 18 be f9 9a 2f 3d
       0.06343713 0.012344921 -0.14898004 0.042872403
0003f0 43 ed cb bb b3 e4 86 3d 46 0c a3 be 6f 95 f0 bd
       -0.006223352 0.0658659 -0.318453 -0.11747252

net.7.bias f4 [50]
000000 30 59 39 3d d3 cf e6 3d d2 19 70 bd c1 04 02 3c
       0.04525107 0.11270108 -0.058618374 0.007935704
000010 b1 69 31 3c bb 27 c9 3d ee 5b 20 bd b8 11 9f 3d
       0.010828421 0.09822031 -0.03915017 0.077670515
000020 17 9d 20 3d 47 d3 9b bc 0c 43 e8 3d ba e7 15 3d
       0.039212313 -0.019021643 0.11340913 0.036597945
000030 32 96 64 bd e6 c6 44 3d 1d 7e a6 bd d4 c7 d0 3c
       -0.0558073 0.048041247 -0.08129523 0.02548591
000040 a6 e2 0e 3d c8 52 c4 3d d5 38 e2 bd 2a 5f 14 be
       0.034884118 0.09586102 -0.11045996 -0.14489427
000050 7c 26 5f bd 05 2f 89 3d 69 34 8e 3b f0 50 10 3d
       -0.05448006 0.066984214 0.004339744 0.035233438
000060 4c f1 04 3d 60 9d 28 3d 18 e3 72 3d a5 66 39 3d
       0.03245668 0.04116571 0.059298605 0.045263905
000070 63 4a 0d 3d 73 21 f0 3c e5 03 ce 3d bb 60 15 bc
       0.03449477 0.029312825 0.100593366 -0.009117301
000080 fa 81 2c bd 24 08 97 3a 56 52 7f 3d 1a 23 36 bb
       -0.042116143 0.0011522812 0.06233438 -0.0027791918
000090 63 11 99 bc 40 f4 09 bd 5c e2 31 3d 48 e8 19 bc
       -0.018685048 -0.0336802 0.043428764 -0.009393759
0000a0 c6 2a 90 3c 03 66 82 bc 47 5b 7d bd 47 7d c7 3d
       0.017598521 -0.015917784 -0.061854627 0.09740692
0000b0 00 b0 10 3d db 2f df 3c af 17 a5 39 39 4b 97 3d
       0.035324097 0.027244499 0.00031488898 0.073873945
0000c0 1b e1 8b 3c 2b f6 c5 bd
       0.017075112 -0.096660934

net.9.weight f4 [10, 50]
000000 60 7f 4e be 83 86 b5 bd 53 78 5d be be 01 19 bd
       -0.20165777 -0.08863547 -0.21627931 -0.037355177
000010 0c f8 ae bc 1b 66 bf 3d ce 1a ac be 7b a1 87 bd
       -0.021358512 0.09345647 -0.336142 -0.06622597
000020 5e 5e 50 be ee fd 19 3e f3 84 ff bd 73 9f 0c be
       -0.20348498 0.15038273 -0.1247653 -0.137327
000030 a3 a3 43 be b3 d4 30 3b 21 40 7a bb bb b8 64 be
       -0.19105391 0.0026982247 -0.0038185196 -0.22336094
000040 54 11 e9 3d b8 40 94 3e 8e e1 b2 3c d5 1f 9c be
       0.11380258 0.28955626 0.021836068 -0.30493036
000050 e4 46 c5 bd 2f f1 13 3d 90 11 25 bc 90 49 79 bc
       -0.09632662 0.036118682 -0.010074988 -0.015215293
000060 2e 58 15 be 3b e5 54 3e da 32 cd bd 10 ab 4a be
       -0.14584419 0.2079057 -0.10019465 -0.19791818
000070 43 1e 1e be 50 b2 05 3c e2 26 12 be 46 e5 1e bd
       -0.15441231 0.008160189 -0.14272645 -0.03879287
000080 49 60 2f bd 84 67 e9 3d b5 11 47 bd bd db 3e 3e
       -0.042816434 0.11396697 -0.04860087 0.18638511
000090 2b 1b 7c be ff 04 9c 3d ed 22 ba be 23 c8 dc bd
       -0.24619739 0.076181404 -0.3635477 -0.107803605
0000a0 a6 a3 84 3e 00 ce 11 bd 9b 9f 95 3d 63 35 1b bd
       0.25906104 -0.035596848 0.07305833 -0.03789271
0000b0 b6 c3 2b 3d 5b b7 e9 3b a8 a0 36 bc 08 55 58 be
       0.04193469 0.0071324534 -0.011146702 -0.21126187
0000c0 37 52 ca 3c 1e 93 96 be c8 ef 07 be 68 4a 9b bd
       0.024697406 -0.29409117 -0.13275063 -0.07582551
0000d0 c1 2c 02 be 75 e0 83 be 8d 7b 28 be b6 5c 81 3d
       -0.12712385 -0.25757185 -0.16453381 0.06316511
0000e0 c6 b8 1e 3e 0b 10 a6 3d 1a 64 58 bd a2 9b 90 be
       0.15500173 0.08108529 -0.05282984 -0.28243738
0000f0 35 d0 f5 be 59 4f f6 3d 12 05 81 bd 15 21 70 3e
       -0.48010412 0.12026853 -0.06299795 0.2345012
000100 61 26 8e 3c 7d e9 bb bd c8 3a 15 3e 1e 16 0c be
       0.017352285 -0.09175394 0.14573205 -0.13680312
000110 2b 0f 75 be 69 3c 65 be 75 d4 0c 3d 94 55 09 be
       -0.23931567 -0.22386326 0.034382302 -0.13411552
000120 04 1b b8 3d 81 8a 74 be d1 93 f1 bd 29 10 b3 be
       0.08989528 -0.2388096 -0.11795772 -0.34973267
000130 25 8b 56 3e c4 f3 b4 3d a7 65 76 3d cc 3d f9 bd
       0.20951517 0.08835557 0.060155537 -0.1216999
000140 8b 87 bf bd 8c c3 54 3e da 13 68 be b1 5b ab be
       -0.09352025 0.2077772 -0.22663823 -0.33468392
000150 11 21 ed bd 57 95 fe 3d 74 c3 dd 3e c6 e3 88 3d
       -0.115785725 0.12430828 0.4331318 0.06684069
000160 dd f5 39 3e 53 39 58 bd a2 b4 b7 bc 7a 5a 18 3c
       0.18160196 -0.052789044 -0.022425 0.009298915
000170 21 13 c8 be 79 89 b5 3b 42 98 46 be f7 37 0e 3d
       -0.39077094 0.0055400697 -0.19394019 0.03472134
000180 54 14 4d bd 76 64 bf 3d c8 84 ff bd 5c 5a 88 3e
       -0.050068215 0.09345333 -0.12476498 0.2663144
000190 f8 72 a1 bd 76 39 80 be 8f 0a 1a bd f4 a7 d1 3d
       -0.07883257 -0.2504384 -0.037607726 0.10237113
0001a0 54 09 b4 3d ce cb 30 3e 38 85 e7 bd dc d8 03 3e
       0.08790842 0.17265245 -0.11304706 0.12875694
0001b0 a5 a3 1e be 14 30 24 be 51 56 e0 bc d1 f8 4b 3d
       -0.15492113 -0.16033965 -0.027384909 0.049797837
0001c0 59 b8 ce bd 0f 4f 0f be 49 59 db bd 87 ac 93 3b
       -0.10093755 -0.13995002 -0.10710389 0.004506651
0001d0 03 31 2c 3e f2 be 0d be a4 0e 47 be 9a 2f 45 be
       0.16815571 -0.13842371 -0.19439179 -0.1925644
0001e0 34 7b 1a bd 3f e1 35 be e8 72 59 3e 8f 5b 6d bd
       -0.037715152 -0.17761706 0.2123524 -0.057948645
0001f0 7a 15 be 3d 8c ee e6 3b 67 9a ee bd b5 03 e3 3d
       0.0928144 0.00704748 -0.11650544 0.110846914
000200 29 51 f8 3d b9 b4 a8 3d 01 f3 34 3e 00 f9 6b be
       0.12124855 0.08237595 0.17670824 -0.23044205
000210 4a 2b a2 bd a2 b7 84 be 65 fc 40 3e 1d a7 78 be
       -0.07918413 -0.2592135 0.18846281 -0.24282499
000220 23 19 86 bd a2 5b 77 bd 86 c9 32 3e 3d 64 c9 bc
       -0.06547763 -0.060390122 0.17459688 -0.02458393
000230 43 66 e5 3d 48 8d 4d be 18 78 61 3d 3e d2 a4 bd
       0.112011455 -0.20073426 0.05504617 -0.08047913
000240 8e 8a 6e 3e b2 29 1c be bd 8f 82 bd a1 bd 20 3d
       0.23295042 -0.1525028 -0.06375072 0.039243344
000250 b2 0b 29 bc 3c fe 71 bd a6 9f 74 3d e5 2d 3f 3e
       -0.01031773 -0.059080347 0.059722565 0.18669851
000260 4d 66 63 bd 20 12 8d bc 70 d4 31 be c7 c0 dd 3d
       -0.055517484 -0.017220557 -0.17366195 0.10827785
000270 59 45 10 3e c9 b5 b2 bc 7c 2b 81 3d b5 d5 13 3e
       0.14088954 -0.021815198 0.06307122 0.14436992
000280 f7 9a 3e bd 02 9b 1e be 3b 00 7e bd 10 0a 1f be
       -0.046534505 -0.15488818 -0.06201194 -0.15531182
000290 20 2d dd bd aa d6 6a 3d 8a 27 25 3e b7 03 b9 3d
       -0.107996225 0.057333626 0.16128364 0.09033912
0002a0 25 e6 0f be b1 6b a3 bd a9 a5 eb 3c f4 d6 b9 3d
       -0.14052637 -0.07979525 0.028765516 0.09074202
0002b0 24 0f 8e 3e c7 a2 14 be 3c e2 2e 3d d6 04 e4 bd
       0.27745926 -0.1451522 0.042696223 -0.11133735
0002c0 fa 1f 99 bd 1e 0d 5d bc 3f 0c a8 bc b2 ff 26 bc
       -0.07476802 -0.013491897 -0.020513652 -0.010192798
0002d0 82 a8 a9 3d 80 d8 2b ba 81 a8 01 3e a8 26 56 be
       0.082840934 -0.00065553933 0.12661935 -0.20913184
0002e0 8e 6f 31 be e2 6a c8 3d 76 5c 97 be 79 49 39 3e
       -0.17327711 0.09786011 -0.2956273 0.18094434
0002f0 18 b4 08 be 92 87 aa bd f8 bb ab be 21 1d 53 be
       -0.1334995 -0.08326639 -0.33541846 -0.2061658
000300 16 37 10 3c 27 5e d8 be 9a 64 9a 3d 85 eb 92 be
       0.008802196 -0.42259333 0.075387195 -0.28695312
000310 25 e5 18 3d 2c b9 96 3d c6 23 40 ba e1 c5 b8 3d
       0.037327904 0.073595375 -0.00073295494 0.090221174
000320 e9 bf 39 3e ba 89 19 be d6 f4 aa bd 98 54 19 bd
       0.18139614 -0.14993945 -0.0834748 -0.03743419
000330 28 60 54 3e 8b e9 94 be 57 96 61 3e 7f 25 11 be
       0.20739806 -0.2908443 0.22030006 -0.1417446
000340 17 26 06 3d c7 d7 c2 bd 27 59 21 3e 76 30 4c bd
       0.03275117 -0.095138125 0.15756665 -0.049850903
000350 4d d9 77 3e 0a 2f 6d be 38 f5 0b 3c 31 21 2e 3e
       0.24203987 -0.23162475 0.008542351 0.17004849
000360 79 63 49 be 6b b8 88 be 75 ac 1f 3e 4a 11 d9 bd
       -0.19666852 -0.267032 0.15593131 -0.10599001
000370 47 fd 89 be 5a 57 2c be 97 79 81 be ee cb ba 3d
       -0.26951048 -0.16830197 -0.25288078 0.09120928
000380 5a ff 40 3e f3 b5 3b be a4 6d 41 be 27 03 91 3d
       0.18847409 -0.18331127 -0.18889481 0.070806794
000390 f5 3d 69 3d 97 c6 d7 3d 9a 7a 8d be bd 28 2d bd
       0.056943852 0.10535925 -0.276326 -0.04227518
0003a0 2e c2 a8 3d 9f 22 20 bd 8c 46 d0 bd 6f d1 3d be
       0.08240162 -0.039095517 -0.10169706 -0.18536924
0003b0 73 7e 3a bd f3 9c 4c bd bd a4 d9 3c 91 8e 84 bd
       -0.045530748 -0.049954366 0.026567811 -0.06472505
0003c0 4d e8 46 3e a5 ec 5f be e5 a6 4a 3d f0 84 8b 3d
       0.19424553 -0.21867616 0.04947557 0.06812465
0003d0 cb cb 86 be 4d 0a db 3d 8c ab ac 3c bd 54 e9 3c
       -0.26327357 0.10695324 0.021077894 0.02848279
0003e0 ec 58 c5 3d 37 c4 9e be d2 eb 28 be 74 8e 5e 3e
       0.09636101 -0.31009075 -0.16496208 0.21734029
0003f0 6a e0 b1 bd bc 11 27 be 03 62 1c 3c c5 1e 01 be
       -0.08685382 -0.16315359 0.009544852 -0.12609394

net.9.bias f4 [10]
000000 01 5e 5c 3c d1 e3 0c bd 8d 54 00 3e c4 ad 60 bd
       0.013450147 -0.03439695 0.12532254 -0.054853216
000010 a6 76 5f 3d 96 fe a7 3d a4 8f 0b 3e 65 e9 8d 3c
       0.05455651 0.08202855 0.13629013 0.017323205
000020 14 cb c0 bc c6 3f 2d bd
       -0.023534335 -0.042297147
