model/mnist-0.0.1.pt (torch, 28976 bytes, 8 tensors)

net.0.weight f4 [6, 1, 5, 5]
0	0x3db1a1d5	0.08673445
1	0x3e4b23c3	0.19837861
2	0xbe6efc17	-0.23338352
3	0xbee0db45	-0.4391729
4	0xbdb89894	-0.09013477
5	0x3c59b45a	0.013287628
6	0x3e6ef957	0.23337303
7	0xbb30b1ed	-0.002696152
8	0xbee6ccd9	-0.4507816
9	0xbce100e5	-0.027466247
10	0xbdefb577	-0.117045335
11	0x3e887b47	0.26656553
12	0xbd671559	-0.056416843
13	0x3c99f336	0.01879273
14	0x3d14e246	0.036348604
15	0xbde0875e	-0.10963319
16	0x3ea5d63f	0.3239002
17	0x3eb4ebdd	0.353362
18	0x3e2eda0e	0.17075369
19	0x3e3bfaaa	0.1835734
20	0xbd467221	-0.048448686
21	0x3d35de53	0.044401478
22	0x3e180e3d	0.14849181
23	0x3e71592c	0.23569173
24	0x3d806e81	0.06271077
25	0x3d8dcdbc	0.06924006
26	0x3e084d0a	0.13310638
27	0x3e92f71a	0.2870415
28	0x3e012485	0.12611587
29	0x3d9f1ed8	0.07769555
30	0xbe35ada1	-0.17742015
31	0x3dd91528	0.10599738
32	0x3e5f7a80	0.21824074
33	0x3e63ff9b	0.22265474
34	0x3dd06f0d	0.10177431
35	0xbefbe012	-0.4919439
36	0xbf07bffc	-0.5302732
37	0xbec917f3	-0.39276084
38	0xbcd971d2	-0.026543532
39	0xbd250e13	-0.040296625
40	0xbd92fc56	-0.071770355
41	0xbe8c8fb8	-0.274534
42	0xbed92839	-0.424135
43	0xbe8a23f3	-0.26980552
44	0xbe84f106	-0.25965136
45	0x3ef568f2	0.4793163
46	0x3e8d38a4	0.27582276
47	0x3e913211	0.2835851
48	0xbd8f202a	-0.06988557
49	0x3c798a2a	0.015230695
50	0xbcf01cfe	-0.0293107
51	0xbe2f8a4e	-0.17142603
52	0xbe2c0ced	-0.16801806
53	0x3e431e76	0.19054589
54	0x3e9fa1b1	0.31178048
55	0x3c4cc08a	0.012497077
56	0xbe795e2d	-0.24352331
57	0xbe0fc199	-0.14038695
58	0x3d5e183b	0.054222327
59	0x3ea57638	0.32316756
60	0xbe37910b	-0.17926423
61	0xbe64c7e3	-0.22341876
62	0xbe79e4b7	-0.24403654
63	0xbd1dc971	-0.038522188
64	0x3eaaf59a	0.33390504
65	0xbe4bf82e	-0.19918892
66	0xbeb8b3ec	-0.3607477
67	0x3d3885a3	0.04504932
68	0x3e92639e	0.28591627
69	0x3e71bad7	0.2360643
70	0xbea66e1f	-0.3250589
71	0xbeb3b778	-0.35100913
72	0xbc903789	-0.017604606
73	0x3e806618	0.2507789
74	0x3dc55988	0.09636217
75	0x3e2ac9da	0.16678563
76	0xbd84b2e4	-0.06479433
77	0x3c52f450	0.012875631
78	0x3ea9fd4d	0.33201066
79	0x3e931097	0.28723595
80	0x3decfdcb	0.11571845
81	0x3e91cada	0.28475076
82	0x3e9ea974	0.30988657
83	0x3e7439db	0.23850195
84	0x3dfd6d60	0.12374377
85	0xbdfee312	-0.12445654
86	0xbddbc057	-0.10730045
87	0xbe3068fa	-0.17227545
88	0xbe70fa35	-0.23532946
89	0xbc99bb0e	-0.018765952
90	0xbdc0c1b0	-0.09411943
91	0xbe030108	-0.12793362
92	0xbe93af3c	-0.2884463
93	0xbdc725f7	-0.09724038
94	0x3ddd1cf4	0.10796538
95	0xbdf65f0b	-0.12029847
96	0xbdb2f743	-0.08738568
97	0xbe2ecac5	-0.17069538
98	0xbcaf0b81	-0.02136779
99	0x3debb018	0.115081966
100	0xbdd95336	-0.10611574
101	0xbe84226b	-0.2580751
102	0xbe69ba0e	-0.2282488
103	0xbe2dc0fa	-0.16968146
104	0xbcf81743	-0.03028453
105	0xbeccbf3d	-0.39989653
106	0xbdc9c084	-0.098511726
107	0xbe86bef5	-0.26317564
108	0xbe105179	-0.1409358
109	0xbcd59a44	-0.026074536
110	0xbd8806e3	-0.066419385
111	0xbdaba999	-0.083819576
112	0xbdb984e0	-0.09058547
113	0x3e70e573	0.23525028
114	0x3e9f5c7c	0.31125247
115	0xbe3c6e0b	-0.18401353
116	0x3dd60c5e	0.104515776
117	0x3e9c7b81	0.30562976
118	0x3e7224f6	0.23646912
119	0x3df34c57	0.11879795
120	0x3e294aca	0.16532436
121	0x3e18433e	0.14869401
122	0x3e92a84a	0.2864402
123	0x3e4c3b4d	0.19944496
124	0x3d8174ac	0.063210815
125	0x3eef370a	0.4672168
126	0x3d90ffff	0.070800774
127	0x3cfd12b8	0.030892715
128	0xbb8e634f	-0.0043453346
129	0x3b4828eb	0.0030541967
130	0xbd4ae406	-0.049533866
131	0x3e0857af	0.13314699
132	0x3da591d8	0.08084458
133	0x3e08ed6c	0.1337182
134	0x3e2a1197	0.16608272
135	0xbe315e0e	-0.17321035
136	0x3dcd579b	0.10026475
137	0x3ce55090	0.027992517
138	0x3e471923	0.19443183
139	0x3df69e11	0.120418675
140	0x3e75a1c8	0.23987496
141	0x3eb22a73	0.3479801
142	0x3e7605af	0.24025606
143	0x3e1facee	0.15593311
144	0xbe1e69af	-0.15470003
145	0xbbff276a	-0.007786681
146	0x3e4bb02e	0.19891426
147	0xbe568594	-0.20949394
148	0xbe696533	-0.2279251
149	0xbe5cd5df	-0.2156596

net.0.bias f4 [6]
0	0xbdd43f21	-0.103636034
1	0x3d8d538a	0.069006994
2	0x3d3ec614	0.04657562
3	0x3df59ca4	0.119927675
4	0x3df4961f	0.11942696
5	0x3e5f34ee	0.21797535

net.3.weight f4 [6, 6, 5, 5]
0	0x3da28b4a	0.079367235
1	0xbbfa6a1e	-0.0076420447
2	0x3ca4a194	0.020096578
3	0xbdc75a4a	-0.09734018
4	0xbe274422	-0.16334584
5	0x3e52612b	0.20544879
6	0xbe0f9422	-0.14021352
7	0xbde1aa97	-0.110188656
8	0xbd7eb669	-0.06218568
9	0xbe387867	-0.1801468
10	0x3e86079d	0.26177683
11	0x3dc30482	0.09522344
12	0xbc868213	-0.016419446
13	0xbe3143b0	-0.17310977
14	0xbd96a2bd	-0.073552586
15	0x3e5e862f	0.21730874
16	0x3df4b074	0.11947718
17	0x3cfa0a3e	0.030522462
18	0x3db492ae	0.088170394
19	0x3c395022	0.011310609
20	0xbd6c361a	-0.057668783
21	0x3d64ccee	0.0558595
22	0x3e42549f	0.18977593
23	0x3dbd7c68	0.09252244
24	0x3d35d886	0.044395946
25	0x3d98b71b	0.074567996
26	0x3df11111	0.11770833
27	0x3d0ec705	0.03485777
28	0xbe346ece	-0.17620394
29	0xbd8c1935	-0.06840745
30	0x3e066555	0.13124593
31	0x3eb52bce	0.35384983
32	0x3e65aab3	0.22428398
33	0x3dcea40d	0.10089884
34	0x3d296e76	0.04136511
35	0x3d201d31	0.03909034
36	0x3e8d08fb	0.27545914
37	0x3e8abbf4	0.27096522
38	0x3e8cb525	0.27481952
39	0x3e3bedb5	0.18352397
40	0x3e46b971	0.19406678
41	0xbbbc4357	-0.005745332
42	0xbc5dc184	-0.013534907
43	0x3d730563	0.05933131
44	0x3dd2806f	0.10278403
45	0x3dbea4f9	0.0930881
46	0x3ccf6c09	0.02532007
47	0x3cea1363	0.028573697
48	0xbd2840b1	-0.04107732
49	0x3d287497	0.041126814
50	0xbd9e0b46	-0.07716994
51	0x3e2f63c9	0.17127909
52	0x3da22c88	0.0791865
53	0x3e355996	0.17709956
54	0x3df8980b	0.12138375
55	0xbe65fd67	-0.22459947
56	0x3c868274	0.016419627
57	0x3d119685	0.035543937
58	0xbcc8d497	-0.024515433
59	0xbc5ade55	-0.013358672
60	0xbebbc451	-0.36673215
61	0xbe5ede45	-0.21764477
62	0xbd741d32	-0.059598155
63	0xbe1c615d	-0.15271516
64	0xbe844987	-0.25837347
65	0xbcc6f855	-0.024288336
66	0xbe324574	-0.17409307
67	0xbd12b09c	-0.03581296
68	0xbdc0a209	-0.09405906
69	0xbe028fe0	-0.12750196
70	0x3e179d21	0.14806034
71	0x3de4b5a6	0.11167459
72	0x3d8cc715	0.068739094
73	0x3deea7b6	0.11653082
74	0x3cc233b8	0.023706302
75	0xbdaabb3e	-0.08336495
76	0x3ceb3832	0.02871332
77	0xbce88c9d	-0.028387362
78	0xbd5fcd45	-0.05463912
79	0x3d42e2bc	0.047579512
80	0xbe129cb7	-0.14317594
81	0xbd3d1c4b	-0.04616956
82	0x3d59d9b5	0.053186137
83	0x3dea79b8	0.11448997
84	0x3da6357c	0.0811567
85	0xbd8f8f66	-0.07009773
86	0xbd8a9484	-0.06766608
87	0xbd3099a4	-0.043115273
88	0x3cf21fca	0.029556174
89	0x3cea1824	0.028575964
90	0x3d893db5	0.06701223
91	0xbe032cfc	-0.12810129
92	0xbdf0ba26	-0.11754255
93	0xbe6be7b5	-0.23037608
94	0xbdf03eca	-0.11730726
95	0x3d1b9c18	0.03799066
96	0x3d273687	0.040823486
97	0x3afaf66a	0.0019146923
98	0xbb892da8	-0.004186351
99	0x3c89a47a	0.016802061
100	0xbb56e05d	-0.003278754
101	0x3dcb0a57	0.099140815
102	0x3e03bdb6	0.12865338
103	0x3e26488a	0.16238609
104	0x3d92104a	0.07132013
105	0xbda05810	-0.078292966
106	0xbdb4eff7	-0.08834832
107	0xbd28bd62	-0.041196235
108	0x3d5489d1	0.051889244
109	0x3d200f3f	0.03907704
110	0xbde0c34c	-0.1097475
111	0xbc9cb481	-0.01912904
112	0xbdaa2560	-0.0830791
113	0xbe28f15c	-0.16498321
114	0xbe0197c7	-0.12655555
115	0xbdd68f31	-0.1047653
116	0xbbe5e7d9	-0.007016164
117	0x3cf53292	0.02993134
118	0x3cf26e19	0.029593514
119	0x3da7902f	0.08181798
120	0x3d7720bd	0.060333956
121	0xbd3bc23f	-0.045839544
122	0xbdd1e832	-0.10249366
123	0xbd20f08d	-0.039291907
124	0xbc8ea5ba	-0.017413009
125	0xbc8d803c	-0.017273061
126	0xbd6c249e	-0.05765211
127	0xbcc93f73	-0.024566388
128	0x3d32474a	0.043525018
129	0x3d9ee9e1	0.077594526
130	0xbdbb306f	-0.09140097
131	0xbe35657b	-0.17714493
132	0xbdbb4e66	-0.09145813
133	0xbdd81259	-0.105503745
134	0xbe01e571	-0.12685181
135	0xbb949e7a	-0.0045354934
136	0xbca7b35f	-0.020471273
137	0xbe0e1df5	-0.13878615
138	0xbe0cf31c	-0.13764614
139	0xbe098a71	-0.13431717
140	0x3d763cad	0.06011646
141	0x3e030192	0.12793568
142	0xbd314ec5	-0.04328801
143	0xbe13e955	-0.14444478
144	0xbe170f92	-0.14752033
145	0x3cd5fda4	0.026121922
146	0x3e31951c	0.17342037
147	0x3dc1a513	0.094553135
148	0xbcfb724a	-0.030694146
149	0x3d15a61b	0.036535364
150	0x3b82050f	0.003967888
151	0x3d22bcf8	0.039730996
152	0x3cb79cf7	0.022413714
153	0x3dbd2b1d	0.09236739
154	0x3cd02c72	0.025411818
155	0x3c5049fb	0.012712951
156	0x3d73bc68	0.05950585
157	0x3dd7ca21	0.105366
158	0x3d9ab3d0	0.07553828
159	0x3dc44007	0.09582525
160	0x3dd65cd8	0.10466927
161	0x3e260690	0.16213441
162	0x3ca228f3	0.019794917
163	0xbd0f6370	-0.03500694
164	0x3db87e28	0.090084374
165	0x3c11692e	0.008875174
166	0xbd970d72	-0.07375611
167	0xbd2b0b85	-0.041759033
168	0x3bc655b7	0.0060526985
169	0x3dc112e7	0.094274335
170	0xbd3eef84	-0.04661514
171	0xbd13a649	-0.036047254
172	0x3db14915	0.086565174
173	0xbc18939e	-0.009312538
174	0xbd4fb850	-0.050712883
175	0xbd1c791f	-0.038201448
176	0x3bf68e4f	0.0075242887
177	0xbd902dbb	-0.070399724
178	0x3cf21b76	0.02955411
179	0x3d09a3c9	0.033603463
180	0x3dd40925	0.10353307
181	0x3e0decf7	0.13859926
182	0x3dd99198	0.10623473
183	0x3dbba43e	0.09162186
184	0x3dd6ee65	0.10494689
185	0x3dd54bb8	0.10414833
186	0x3da4fd1c	0.08056089
187	0x3cc69b6d	0.024244035
188	0x3df8aa52	0.12141861
189	0x3e7f2605	0.24916847
190	0x3dcc21ed	0.09967408
191	0x3dcd7b14	0.10033241
192	0x3e4a9ed2	0.19787148
193	0x3e678f66	0.22613296
194	0x3e33e09f	0.17566155
195	0xbd23f861	-0.040031794
196	0x3dc3f3d5	0.09567992
197	0x3c661ef2	0.014045464
198	0xbd38d68a	-0.045126475
199	0xbd40ff1e	-0.0471183
200	0x3d3a584b	0.04549436
201	0x3c8c5a90	0.017133027
202	0xbe599e3b	-0.21251766
203	0xbcd4808f	-0.025940208
204	0xbceace3d	-0.028662795
205	0xbda960db	-0.08270427
206	0xbe027e48	-0.12743485
207	0xbd9c7a3a	-0.076405
208	0xbe08b2b7	-0.13349424
209	0xbdd442e2	-0.103643194
210	0xbd75f547	-0.060048368
211	0xbddcf8d6	-0.10789649
212	0xbd9edb35	-0.07756654
213	0xbe269c27	-0.16270505
214	0xbda6c130	-0.08142316
215	0x3ca07a59	0.01958959
216	0xbdcc47f4	-0.099746615
217	0xbddaf87e	-0.106919274
218	0xbe1201df	-0.14258526
219	0xbd07be2e	-0.033140354
220	0xbc6fd806	-0.014638906
221	0x3d088c92	0.033337183
222	0xbcab90fd	-0.02094316
223	0xbdec4f39	-0.11538548
224	0xbe10a227	-0.14124356
225	0x3caf73c4	0.021417506
226	0x3ace7855	0.0015752414
227	0xbc85dc38	-0.01634036
228	0xbe1fbb1f	-0.15598725
229	0xbdf5f55b	-0.120096885
230	0xbdeeb083	-0.11654761
231	0xbd88d15b	-0.066805564
232	0xbc23fec4	-0.010009471
233	0x3b80964c	0.003924167
234	0x3ddbd0cb	0.107331835
235	0x3dc64f52	0.09683098
236	0x3dbec6de	0.09315275
237	0x3d1a9733	0.03774185
238	0x3e44e534	0.19228059
239	0x3e616984	0.22012907
240	0x3ac08dee	0.0014690736
241	0x3da21686	0.07914452
242	0x3e7aaf5f	0.24480961
243	0x3e7dbba9	0.24778618
244	0x3e2f3700	0.17110825
245	0xbc763569	-0.015027382
246	0x3e2a042b	0.16603152
247	0x3cc91381	0.024545433
248	0x3d2c7470	0.04210323
249	0x3d587173	0.05284257
250	0xbc676874	-0.014124025
251	0xbd6f3985	-0.058404464
252	0xbe186670	-0.14882827
253	0xbd8658f5	-0.06559936
254	0x3df18081	0.11792088
255	0xbdfbf21d	-0.12302039

net.3.bias f4 [6]
0	0x3d5bd730	0.053672016
1	0xbd05c625	-0.03265967
2	0xbdb73be6	-0.089469716
3	0x3d7de39b	0.06198464
4	0x3df438c0	0.11924887
5	0x3de8c1c0	0.1136508

net.7.weight f4 [50, 96]
0	0xbd0e2f9b	-0.03471337
1	0xbe6deb4f	-0.23234294
2	0xbcce595b	-0.025189092
3	0x3dc49746	0.095991656
4	0x3db24266	0.08704071
5	0x3e23c8d0	0.15994573
6	0xbd9ecac6	-0.0775352
7	0x3cddf860	0.027095973
8	0xbb710cc6	-0.0036781295
9	0x3dc575e4	0.096416265
10	0xbdf6df21	-0.12054277
11	0xbd8399d8	-0.06425828
12	0xbe2babe3	-0.16764788
13	0x3db9db31	0.090750106
14	0xbe1d2647	-0.15346633
15	0xbdd49453	-0.10379853
16	0xbcc7d3e2	-0.024393026
17	0xbc838cb4	-0.016058303
18	0xbe1ffcd3	-0.15623789
19	0xbe05d794	-0.13070518
20	0x3e22dd83	0.15904813
21	0xbc97ac00	-0.018514633
22	0x3e08130b	0.13288514
23	0x3d49062d	0.049078155
24	0xbcde8dba	-0.02716719
25	0xbc046f3e	-0.008083163
26	0xbd3fb2e5	-0.046801466
27	0x3dd7de9a	0.10540505
28	0x3d2ac851	0.041694943
29	0xbd139419	-0.03602991
30	0x3ba17f46	0.0049285023
31	0xbc76ef42	-0.015071692
32	0xbe157198	-0.14594114
33	0xbd955a0b	-0.07292565
34	0x3ce0ae77	0.027426941
35	0xbce5fac9	-0.028073685
36	0x3c93a636	0.018023591
37	0x3db86117	0.090028934
38	0x3e0fbb40	0.14036274
39	0x3d90d419	0.070717044
40	0xbd8fda83	-0.070241
41	0x3d5dabe9	0.054119024
42	0xbd8a3bbe	-0.06749676
43	0xbdd84923	-0.10560825
44	0xbd2dff53	-0.042479824
45	0xbdc08d4a	-0.09401949
46	0xbd3847ce	-0.044990353
47	0x3db19c33	0.08672371
48	0x3e3895a7	0.18025838
49	0x3c832cf0	0.016012639
50	0x3d47d0e6	0.048783205
51	0xbd601f8f	-0.054717597
52	0x3e2ce403	0.16883855
53	0x3c3c35d1	0.01148744
54	0x3d591e57	0.05300745
55	0xbe0ea5e2	-0.13930467
56	0x3decd355	0.11563746
57	0xbcbfa716	-0.023395102
58	0x3e28cb64	0.16483837
59	0x3e04a04a	0.1295177
60	0xbdd5d4e5	-0.10440997
61	0xbca64b9d	-0.020299727
62	0x3d614230	0.054994762
63	0x3e000e2b	0.12505405
64	0xbdcac168	-0.099001706
65	0xbe0e8779	-0.13918866
66	0x3bbe1d53	0.0058018356
67	0xbd97f698	-0.07420081
68	0x3dc7c6e4	0.09754732
69	0xbd0db68c	-0.03459792
70	0x3ca7d9f0	0.020489663
71	0x3b63b312	0.0034744185
72	0xbd329be1	-0.04360569
73	0x3d64dbc1	0.055873636
74	0x3bc02606	0.0058639077
75	0x3e14d285	0.14533432
76	0xbcbc6a0f	-0.022999791
77	0x3df9611c	0.12176725
78	0x3e612e29	0.21990265
79	0x3d81aba4	0.06331566
80	0xbf00d4a8	-0.5032449
81	0xbe360828	-0.17776549
82	0x3d94c80e	0.0726472
83	0x3e419116	0.18903002
84	0xbd16331b	-0.03666983
85	0x3d29970f	0.041403826
86	0xbe1fae91	-0.15593936
87	0xbdda50c1	-0.10659934
88	0x3dc1f35c	0.09470245
89	0x3dc91674	0.09818736
90	0xbbe82330	-0.007084273
91	0xbc58c35d	-0.013230172
92	0x3dea9bc0	0.11455488
93	0x3db88c12	0.09011091
94	0x3d80ae2c	0.06283221
95	0x3d5f094f	0.054452237
96	0x3db0523c	0.08609435
97	0xbd4d1e7d	-0.050077904
98	0xbdacb60d	-0.08433161
99	0xbd950171	-0.072756656
100	0xbd41edb4	-0.047345832
101	0xbe1b1282	-0.15143779
102	0xbe108779	-0.14114179
103	0xbd2c94b6	-0.04213401
104	0xba6f6e83	-0.0009133594
105	0x3ccdf96c	0.025143348
106	0x3db3c14e	0.08777104
107	0x3d06ff6d	0.032958437
108	0x3d76324e	0.060106568
109	0xbd4c199c	-0.04982911
110	0xbd874d8d	-0.066065885
111	0x3ca565e2	0.020190183
112	0x3d36dd0b	0.044644397
113	0x3d071f19	0.03298864
114	0xbe13e943	-0.14444451
115	0xbddf22b5	-0.10895292
116	0x3e0da454	0.13832217
117	0x3dc944d8	0.09827584
118	0x3d839b04	0.06426051
119	0xbd1927cb	-0.037391465
120	0x3d8968e5	0.0670946
121	0x3d82a1f3	0.063785456
122	0x3e21528a	0.15754142
123	0x3dd573c4	0.10422471
124	0xbe14e9c5	-0.14542301
125	0x3d40dcb6	0.047085486
126	0xbd1e103e	-0.03858971
127	0x3d42d5b4	0.047567084
128	0x3cd2258e	0.025652673
129	0x3e0f5e39	0.14000787
130	0xbd3234bc	-0.043507323
131	0xbd93fb51	-0.07225669
132	0xbd3e671a	-0.046485044
133	0xbd75efb9	-0.06004307
134	0x3d78ee34	0.060774043
135	0xbdde6138	-0.10858387
136	0x3cb40d96	0.021979135
137	0x3d8df43d	0.069313504
138	0x3e1c7da8	0.15282309
139	0x3e3ffb1e	0.18748137
140	0x3d86b808	0.0657807
141	0xbd9691e8	-0.07352048
142	0xbc20b9c7	-0.009809918
143	0x3d384a8c	0.04499297
144	0xbe3b00f4	-0.18262082
145	0xbdb2f59e	-0.08738254
146	0xbdb0d107	-0.08633619
147	0xbdbfba31	-0.09361685
148	0xbd2929dc	-0.041299686
149	0x3cdb4cd0	0.026770025
150	0xbb79265e	-0.0038017253
151	0x3e323d78	0.17406261
152	0xbd732f27	-0.05937114
153	0x3dd96d46	0.106165454
154	0xbd8ffd8f	-0.07030784
155	0x3d811564	0.06302908
156	0xbd9c5439	-0.07633252
157	0x3c352d19	0.011058115
158	0x3e0d7be0	0.13816786
159	0x3d0f3d02	0.03497029
160	0xbdcda572	-0.10041322
161	0xbd7c293a	-0.061562754
162	0x3b614266	0.0034371852
163	0xbe87e39f	-0.2654085
164	0xbe0c85d5	-0.13722928
165	0x3de8549a	0.113442615
166	0x3e59d08b	0.21270959
167	0x3e18d44c	0.14924735
168	0xbd9eeff9	-0.07760615
169	0xbd2244da	-0.039616443
170	0x3e00f861	0.12594749
171	0xbd9a8641	-0.07545138
172	0x3d4f0f81	0.050551895
173	0xbd9ff9ca	-0.07811315
174	0x3d961dd3	0.07329907
175	0xbd5bf23b	-0.053697806
176	0x3e7e4288	0.24830067
177	0x3de46d02	0.11153604
178	0x3e086226	0.1331869
179	0xbea42217	-0.32057258
180	0x3df6a27e	0.12042712
181	0xbd1fcd3c	-0.039014086
182	0xbd852eb3	-0.06503048
183	0xbe1de0c0	-0.15417767
184	0x3de8e79d	0.11372302
185	0x3df4867f	0.119397156
186	0xbd2b970e	-0.041892104
187	0x3dbdebf8	0.09273523
188	0xbdc78d9e	-0.09743808
189	0xbe0a7068	-0.13519442
190	0xbcb6d266	-0.022317123
191	0xbd03f984	-0.03222038
192	0xbe472e06	-0.1945115
193	0xbdebbcab	-0.11510595
194	0xbd321ced	-0.043484617
195	0x3db2703d	0.08712814
196	0x3d0fae9f	0.03507864
197	0x3d148e2f	0.03626841
198	0x3e6554c8	0.22395623
199	0x3e5a5643	0.21321969
200	0xbdf8b043	-0.12142994
201	0xbe74e8ab	-0.23916881
202	0x3e25377f	0.16134451
203	0x3e2cf55a	0.16890469
204	0x3dc98b62	0.09841038
205	0xbd534abc	-0.051584944
206	0x3e01a6af	0.12661241
207	0x3d4304cd	0.047612
208	0x3d83cbb7	0.0643534
209	0x3e01dbb8	0.12681472
210	0x3dbd2aad	0.092366554
211	0x3d90aeea	0.07064612
212	0x3c03ae5d	0.008037177
213	0xbc879e3e	-0.016554948
214	0x3db39832	0.08769263
215	0x3df3c60c	0.11903009
216	0xbd8e5b54	-0.06951013
217	0xbc48f003	-0.0122642545
218	0xbbdd57c2	-0.0067548463
219	0xbd03a378	-0.032138318
220	0x3d0feeb1	0.035139743
221	0xbd897b1e	-0.06712936
222	0x3d1eb5b8	0.03874752
223	0x3c20538d	0.009785545
224	0xbdc0202e	-0.09381138
225	0x3ce95af8	0.02848576
226	0x3cadcc97	0.02121572
227	0x3cf7000a	0.030151386
228	0xbc84bc51	-0.016203078
229	0x3d92a11d	0.07159636
230	0x3e82dddd	0.25559893
231	0x3e5fcdaa	0.21855798
232	0xbdaf7782	-0.08567716
233	0xbca366c8	-0.01994647
234	0x3db34aa7	0.08754473
235	0xbd2b132d	-0.041766334
236	0x3db65ac3	0.0890403
237	0x3e1592d3	0.1460679
238	0x3def8f31	0.116972335
239	0xbe40639e	-0.18788001
240	0x3d6bfc7b	0.05761383
241	0xbdc2ac88	-0.09505564
242	0xbd1b90a2	-0.03797973
243	0x3d758d64	0.059949294
244	0x3a9b89e9	0.0011866662
245	0x3dbe426f	0.09290015
246	0xbccd3847	-0.02505125
247	0xbd6d15e7	-0.057882216
248	0x3c23ff74	0.010009635
249	0x3dd0e411	0.1019975
250	0xbcb52630	-0.022112936
251	0x3c2b5b24	0.010458741
252	0x3e2bba5d	0.1677031
253	0x3e2031dc	0.1564402
254	0xbe2fdade	-0.17173335
255	0xbdf4672a	-0.119337395

net.7.bias f4 [50]
0	0xbd244c28	-0.04011169
1	0x3d0eef87	0.0348964
2	0x3d541436	0.051777087
3	0xbe1d7b7d	-0.15379138
4	0xbd0a388d	-0.033745337
5	0xbd088b92	-0.03333623
6	0x3dd0cf0a	0.101957396
7	0xbc5266c6	-0.012841886
8	0xbce12624	-0.027484007
9	0xbcef2b3b	-0.029195419
10	0xbc40e60a	-0.011773596
11	0x3d290dc7	0.041272905
12	0x3deeed7e	0.11666392
13	0xbbdc133d	-0.0067161606
14	0x3e22a1e6	0.15882072
15	0x3d33f6fc	0.043936715
16	0x3cee23a1	0.029069724
17	0x3c82ef1c	0.015983157
18	0x3d95202a	0.072815254
19	0x3d2ca143	0.04214598
20	0x3c057532	0.008145617
21	0xbdcbcd45	-0.099512614
22	0xbd897471	-0.067116626
23	0x3dcc00ee	0.09961115
24	0x3c3e3aa4	0.011610661
25	0xbdbd845b	-0.092537604
26	0x3daa1e03	0.083065055
27	0x3df207dc	0.11817905
28	0x3d9ff7ba	0.07810922
29	0x3c906b32	0.01762924
30	0x3d591a9b	0.05300389
31	0x3d2fc742	0.042914636
32	0xbd69af50	-0.057051957
33	0x3ddd4bc7	0.10805469
34	0xbd068864	-0.032844916
35	0xbda59338	-0.080847204
36	0x3d31f8b8	0.043450087
37	0x3dfd1702	0.12357904
38	0x3c9962f5	0.018723944
39	0xbcad1fc5	-0.021133313
40	0xbc2f7296	-0.010708472
41	0x3e05fa18	0.13083684
42	0x3ce18398	0.02752857
43	0x3c1cbee4	0.009566996
44	0x3d03e686	0.032202266
45	0xbcc90184	-0.024536856
46	0xbbf4d7fd	-0.007472037
47	0xbcbf3d40	-0.023344636
48	0x3deba27b	0.115056
49	0x3d9f3b5a	0.07774992

net.9.weight f4 [10, 50]
0	0xbe0fb64b	-0.14034383
1	0xbe006ac2	-0.12540725
2	0xbd628908	-0.055306464
3	0xbe0c22b6	-0.13685116
4	0x3e309b30	0.172467
5	0xbe468c39	-0.19389428
6	0xbc620913	-0.013796109
7	0xbdc7aa9b	-0.09749337
8	0x3b534049	0.0032234362
9	0x3e0c628d	0.13709469
10	0xbd7731ac	-0.060350105
11	0xbe279208	-0.163643
12	0xbd3a9908	-0.0455561
13	0xbd747556	-0.059682213
14	0x3de033eb	0.109474026
15	0xbe391c64	-0.18077236
16	0x3d85e9d1	0.065387376
17	0xbd10fb9e	-0.03539621
18	0x3e697296	0.22797617
19	0x3db482d6	0.088140175
20	0xbca99281	-0.020699741
21	0xbe928eca	-0.28624564
22	0xbe853955	-0.26020303
23	0xbe65b3c7	-0.22431861
24	0x3cdc499b	0.026890567
25	0xbe16fa8c	-0.14744014
26	0x3dd1a4cd	0.102365114
27	0xbd96c79f	-0.073622935
28	0x3db56e3d	0.08858917
29	0xbdfe4ac9	-0.12416608
30	0x3e237d1e	0.15965697
31	0x3e13cbc4	0.14433199
32	0x3e234ad5	0.15946515
33	0xbdc0633f	-0.0939393
34	0xbe0e318d	-0.1388609
35	0x3cf83229	0.030297356
36	0x3ddda927	0.10823279
37	0xbafeb796	-0.0019433375
38	0xbe024d58	-0.12724817
39	0xbe3333de	-0.17500255
40	0x3e09ea43	0.1346827
41	0x3e542708	0.20718014
42	0xbe0a128b	-0.13483636
43	0xbd8b4759	-0.06800718
44	0x3c13e0d2	0.009025769
45	0xba7a80a3	-0.00095559115
46	0x3de89124	0.113558084
47	0xbdeab879	-0.114609666
48	0x3d67e3ec	0.056613848
49	0x3d869adb	0.06572505
50	0xbe3973a0	-0.18110514
51	0xbdf61211	-0.12015165
52	0xbe5c1e85	-0.21496017
53	0x3ed3bdeb	0.41355833
54	0x3e6e5912	0.23276165
55	0x3cc71b57	0.024305029
56	0xbdd35376	-0.10318653
57	0x3cdb4a45	0.026768813
58	0x3df9a7cd	0.121902086
59	0xbd8b2546	-0.06794219
60	0x3e36a26b	0.17835395
61	0x3dd721fc	0.10504529
62	0x3e5a751c	0.21333736
63	0x3e03e8f1	0.12881829
64	0x3e79349e	0.24336478
65	0xbd8c4fd4	-0.068511635
66	0x3d239b3e	0.039942972
67	0xbd1fe4cd	-0.03903656
68	0x3bb131bf	0.0054075415
69	0xbcfa2c61	-0.03053874
70	0x3c88f28c	0.016717218
71	0x3e1fe8ed	0.15616198
72	0xbbb7d639	-0.005610254
73	0xbdeb26fa	-0.114820436
74	0xbd8e2b52	-0.069418564
75	0xbbab7cb5	-0.005233372
76	0x3d5bf0f5	0.05369659
77	0x3dbb203a	0.09137006
78	0xbd136139	-0.03598139
79	0xbd0666b9	-0.032812808
80	0xbe5acac1	-0.21366407
81	0xbce5491d	-0.027988965
82	0xbe737eb6	-0.23778805
83	0x3e2db316	0.16962847
84	0xbd51077a	-0.05103252
85	0xbdaa9274	-0.08328715
86	0xbea9ae32	-0.33140713
87	0x3d95b4a3	0.07309844
88	0xbd827a38	-0.063709676
89	0x3df6065e	0.12012933
90	0xbdfa865d	-0.12232659
91	0x3e53a53d	0.20668502
92	0x3d684553	0.056706738
93	0xbd7709ec	-0.060312197
94	0xbe9f93a8	-0.3116734
95	0x3d15df9d	0.036590207
96	0xbe67ada9	-0.2262484
97	0xbe8947db	-0.26812634
98	0xbe40097b	-0.18753617
99	0x3c3da68f	0.011575355
100	0xbcfc7d31	-0.030821415
101	0x3d574111	0.052552287
102	0xbd6ceb86	-0.0578418
103	0xbd8b41f9	-0.06799693
104	0xbe64fa08	-0.22361004
105	0xbe0e6d33	-0.13908844
106	0xbd8acdc5	-0.06777529
107	0x3c9ebda1	0.019377531
108	0xbe753beb	-0.23948638
109	0x3ddfb461	0.109230764
110	0x3d79d621	0.060995225
111	0xbcaacd2d	-0.020849789
112	0x3ddf2c5a	0.10897131
113	0x3e1f30d2	0.15545967
114	0xbe1930bf	-0.14960001
115	0x3d9a6602	0.07538988
116	0x3e09d9d9	0.13462009
117	0x3ce7e494	0.028307237
118	0x3d3dd52c	0.046345875
119	0xbd607b1f	-0.054804917
120	0x3dd90d58	0.10598248
121	0xbe8f4d5e	-0.27988714
122	0xbdb37606	-0.087627456
123	0xbcbe5ddd	-0.023238117
124	0xbe6bd350	-0.23029828
125	0x3de1892b	0.11012491
126	0x3e989541	0.29801372
127	0x3dbd9cab	0.09258398
128	0x3e1e7acc	0.15476531
129	0xbe0276df	-0.12740658
130	0xbdb90bb2	-0.09035434
131	0xbc43b3d5	-0.011944731
132	0xbe94c0e4	-0.29053414
133	0xbdfe12b1	-0.12405909
134	0x3daae2c3	0.083440326
135	0x3d9a1c3d	0.07524917
136	0x3dc753e5	0.097327985
137	0x3ddefe62	0.108883634
138	0xbea4ec23	-0.32211408
139	0xbe4e02f9	-0.20118321
140	0xbe1271ea	-0.14301267
141	0x3e45435c	0.19263977
142	0xbda2ad80	-0.07943249
143	0xbd8349a5	-0.06410531
144	0xbe38872f	-0.18020318
145	0x3da7ba29	0.08189804
146	0x3d0a519c	0.033769235
147	0x3e46b13b	0.19403546
148	0xbea280da	-0.3173893
149	0x3dc00638	0.09376186
150	0xbd810949	-0.06300599
151	0x3dabc1b8	0.08386558
152	0x3e1b042e	0.15138313
153	0x3e0042aa	0.1252543
154	0xbdc5f4c0	-0.09665823
155	0xbd926c79	-0.07149596
156	0x3dba116f	0.090853564
157	0xbbb7fa6e	-0.0056145703
158	0xbe309a74	-0.17246419
159	0x3e13dd31	0.14439847
160	0xbc342faa	-0.010997692
161	0xbe8d73d0	-0.2762742
162	0xbe00aa41	-0.12564947
163	0x3e152ae3	0.14567141
164	0xbe34625e	-0.17615649
165	0xbca34a47	-0.01993288
166	0xbdf09b2d	-0.117483474
167	0x3cc7427b	0.024323693
168	0xbe2bf311	-0.16791941
169	0x3cbb789d	0.022884661
170	0xbd3f3edf	-0.046690818
171	0x3dd05d85	0.101740874
172	0x3d14c833	0.036323737
173	0xbc927c55	-0.017881552
174	0xbe0e7261	-0.1391082
175	0x3d83c561	0.064341314
176	0xbe219945	-0.15781124
177	0x3d8f1c3c	0.06987807
178	0xbd87d439	-0.06632275
179	0xbce7b067	-0.028282357
180	0x3c1296a2	0.0089470465
181	0xbe8e5170	-0.27796507
182	0xbe6c70f8	-0.23089969
183	0xbe7420d6	-0.23840651
184	0x3cc98008	0.024597183
185	0xbd9ed8ff	-0.077562325
186	0x3dd2e140	0.10296869
187	0xbe43eb31	-0.19132687
188	0x3e116316	0.14197955
189	0x3e5f92bc	0.21833318
190	0x3d6ee255	0.058321316
191	0xbe46dfd5	-0.19421323
192	0x3dfda377	0.12384694
193	0x3d8f7457	0.07004612
194	0xbd782ec5	-0.060591478
195	0xbdfd4452	-0.12366547
196	0xbbc6785a	-0.0060568275
197	0xbd8bcb85	-0.06825928
198	0xbc591f65	-0.013252114
199	0x3dc06df9	0.093959756
200	0x3de23290	0.110448
201	0x3d3450d5	0.0440224
202	0xbe431461	-0.19050743
203	0xbe88e4a4	-0.2673694
204	0xbeaf5f3a	-0.3425234
205	0x3e1ccc55	0.15312321
206	0xbe88fdd3	-0.26756153
207	0xbcde18fe	-0.027111527
208	0xbdfe4247	-0.12414985
209	0xbe28e276	-0.16492638
210	0x3ded6113	0.11590781
211	0x3e2c4354	0.16822559
212	0xbd8884f7	-0.06665986
213	0xbe562c01	-0.20915224
214	0x3e2252cc	0.15851897
215	0xbe3c42d9	-0.18384875
216	0xbdd94189	-0.10608203
217	0x3d6e830b	0.05823044
218	0x3de7a9ec	0.11311707
219	0xbdd58522	-0.10425784
220	0x3d91daae	0.07121788
221	0xbd4a9991	-0.04946286
222	0x3e10005b	0.14062636
223	0xbdb71515	-0.08939568
224	0x3d91d64a	0.071209505
225	0xbdc9e5e0	-0.09858298
226	0x3cb38451	0.02191368
227	0xbdbddb81	-0.09270383
228	0x3e2a322d	0.16620703
229	0xbd5d5a3b	-0.05404113
230	0xbe888943	-0.26667222
231	0xbe97aed8	-0.29625583
232	0xbd0e1d1b	-0.034695726
233	0xbd1d0124	-0.038331166
234	0xbe045d05	-0.12926109
235	0x3d655427	0.055988457
236	0x3cdd92a8	0.02704747
237	0xbdf3e000	-0.11907959
238	0x3e45a037	0.19299398
239	0xbe372385	-0.17884643
240	0xbc9bf8ec	-0.019039594
241	0x3dcd17b9	0.1001429
242	0x3e5bd970	0.21469665
243	0xbd817ce6	-0.063226506
244	0x3df92833	0.121658705
245	0x3cbf43b4	0.023347713
246	0xbcf418d7	-0.029797
247	0x3e005ea7	0.12536107
248	0x3d58da96	0.052942835
249	0xbdd3e769	-0.10346872
250	0xbda4321a	-0.080173686
251	0xbe3d6581	-0.18495752
252	0x3e1d166e	0.15340587
253	0x3e8aaefc	0.27086627
254	0xbd25b15b	-0.040452342
255	0xbdf758cc	-0.120774835

net.9.bias f4 [10]
0	0xbd892cb6	-0.06697981
1	0x3b857260	0.0040724725
2	0x3c233daf	0.009963437
3	0x3d3a5b33	0.04549713
4	0x3d99de16	0.07513063
5	0xbda97edb	-0.08276149
6	0xbde284ef	-0.11060511
7	0xbddbc856	-0.107315704
8	0x3e0fa2f8	0.14027011
9	0x3e0fe632	0.14052656
